model.pkl (torch, 189517 bytes, 3 tensors)

gcn1.fc.weight f4 [32, 1433]
0	0xbc70ad87	-0.01468981
1	0x3d3b8ab0	0.04578656
2	0x3d99693c	0.07490775
3	0x3c2e5412	0.010640161
4	0xbda11584	-0.07865432
5	0xbd10536a	-0.0352358
6	0x3d9832ab	0.07431539
7	0x3acd7d69	0.0015677634
8	0x3d63b372	0.055591054
9	0x3c383f0a	0.011245498
10	0x3c102e33	0.008800077
11	0x3d5fcfd5	0.054641563
12	0xbd21fd1d	-0.03954803
13	0xbdf5590d	-0.11979876
14	0x3dba3a90	0.09093201
15	0xbcc0b2c2	-0.023522738
16	0xbdfd3bcd	-0.12364922
17	0xbbe32d25	-0.006932872
18	0x3c4653ef	0.012104972
19	0xba536f98	-0.000806564
20	0xbda77378	-0.08176321
21	0x3c18afd5	0.009319265
22	0x3d958e8c	0.07302579
23	0xbe324430	-0.17408824
24	0xbd4dd262	-0.050249465
25	0x3d47c533	0.04877205
26	0x3d8e0705	0.069349326
27	0x3c30b205	0.010784631
28	0x3c673e41	0.014113964
29	0x3d9b5902	0.07585336
30	0x3d90103d	0.07034347
31	0xbcd91695	-0.026500026
32	0xbd7da0a7	-0.06192079
33	0xbd84988e	-0.0647441
34	0x3d2bf15e	0.041978233
35	0xbd8d862e	-0.06910358
36	0xbcd0a16b	-0.025467595
37	0xbd894402	-0.067024246
38	0x3dbec916	0.09315698
39	0xbd1fcc05	-0.039012928
40	0xbe219af8	-0.15781772
41	0x3c57f572	0.013181077
42	0xbc62a8ad	-0.013834161
43	0x3d9ad4ee	0.07560144
44	0x3da93577	0.08262151
45	0x3d5ebad8	0.054377407
46	0x3d4d1554	0.05006917
47	0x3d97a709	0.07404906
48	0xbdb6acd6	-0.089196846
49	0xbdfe2581	-0.12409497
50	0xbd018288	-0.031618625
51	0x3e3b17d7	0.18270813
52	0xbdcea622	-0.10090281
53	0xbb12096e	-0.0022283453
54	0xbd13e3d9	-0.036105964
55	0x3d9ed768	0.07755929
56	0xbd33b107	-0.04387
57	0x3d2c01b6	0.04199382
58	0xbd8bb992	-0.06822504
59	0xbaa972eb	-0.0012927925
60	0xbda9c3d1	-0.08289302
61	0x3d33cf71	0.043899003
62	0x3cb63b60	0.02224511
63	0x3c1da4ae	0.009621782
64	0xbc547a4c	-0.012968611
65	0x3c87e68f	0.016589431
66	0x3dde54d9	0.10856027
67	0x3d005d8f	0.031339224
68	0xbde9316d	-0.1138638
69	0x3c8e8c66	0.017400932
70	0x3c7cc4ed	0.01542781
71	0x3d48ee52	0.049055405
72	0xbe16d6c2	-0.14730361
73	0xbdddf6b6	-0.10838072
74	0xbbecfe95	-0.007232497
75	0xbdf17ca8	-0.117913544
76	0xbce5f71d	-0.028071934
77	0xbd92712d	-0.07150493
78	0xbc0a17f1	-0.00842856
79	0x3d95e2bc	0.07318637
80	0x3d70771d	0.058707345
81	0xbd85fc9a	-0.065423205
82	0x3ca05965	0.019573877
83	0xbc0e1f04	-0.008674387
84	0xbdec7ce7	-0.11547261
85	0xbcb56eac	-0.022147499
86	0x3dd5f90e	0.10447894
87	0xbdbecd2c	-0.09316477
88	0xbe211f16	-0.15734515
89	0x3bd3d050	0.006464042
90	0xbd09035c	-0.03345047
91	0xbd5919d4	-0.053003147
92	0xbdc97361	-0.0983646
93	0x3ba92c37	0.0051627415
94	0x3c999aee	0.018750634
95	0xbd9f489a	-0.077775195
96	0x3d912b6f	0.070883624
97	0x3e1297fd	0.14315791
98	0x3d1d5831	0.038414184
99	0x3dfce90e	0.12349139
100	0x3d14d202	0.03633309
101	0xbdf377c6	-0.11888079
102	0xbe0050d0	-0.12530828
103	0xbe36650d	-0.17811985
104	0xbe2493ce	-0.16072008
105	0xbd1498f7	-0.03627869
106	0xbd933d1f	-0.07189392
107	0x3c80cbe5	0.015722224
108	0x3d6a106b	0.057144564
109	0x3ce707d5	0.028201977
110	0x3de47bd5	0.111564316
111	0x3dc537b9	0.09629769
112	0xbde081e0	-0.10962272
113	0xbc91c029	-0.017791824
114	0x3d5c4421	0.05377591
115	0x3d047c1e	0.03234493
116	0xbcdf5dc2	-0.027266387
117	0xbdc1437b	-0.09436699
118	0x3da51124	0.0805991
119	0xbd93014b	-0.07177981
120	0xbd238487	-0.03992131
121	0x3d745e49	0.05966023
122	0xbd58ee12	-0.052961417
123	0xbd98d5a4	-0.07462624
124	0x3c542f98	0.0129508
125	0xbde1c248	-0.11023384
126	0xbd1c0daa	-0.03809897
127	0xbe120edf	-0.14263485
128	0xbda521c4	-0.08063081
129	0xbdcd638d	-0.100287534
130	0x3d2cfe99	0.04223499
131	0xbd7bb478	-0.061451405
132	0xbd81d374	-0.063391596
133	0xbdb6fec3	-0.08935311
134	0xbbc2fb13	-0.0059503405
135	0xbe1666b3	-0.14687614
136	0xbd155d3d	-0.036465872
137	0xbd00d750	-0.031455338
138	0x3d5e320c	0.054246947
139	0xbd0a6b6c	-0.03379385
140	0x3d07725d	0.03306805
141	0xbb09c101	-0.002101958
142	0x3da04332	0.078253165
143	0xbe3f66ed	-0.18691607
144	0xbbb35647	-0.0054729315
145	0xbd82f706	-0.06394772
146	0x3d29de93	0.04147203
147	0x3d48ca0f	0.049020823
148	0xbc27ec7d	-0.010249254
149	0x3b82f109	0.003996019
150	0x3c5706be	0.013124166
151	0xbd3f7055	-0.046737988
152	0x3c53e671	0.0129333595
153	0xbb8e9f32	-0.0043524737
154	0x3dd1dbb5	0.10246984
155	0xbdc6c0ef	-0.09704768
156	0xbe046708	-0.12929928
157	0xbd92dd11	-0.07171071
158	0x3cab0172	0.020874713
159	0xbc79b513	-0.015240925
160	0xbdcd7aee	-0.100332126
161	0x3d85ffad	0.06542907
162	0xbe19d1f3	-0.15021496
163	0x3d8fd3ef	0.07022845
164	0x3dfe5d23	0.12420108
165	0x3e203e5b	0.15648787
166	0xbe363222	-0.17792562
167	0xbc17270b	-0.009225617
168	0x3da81707	0.08207517
169	0x39d35da3	0.0004031482
170	0xbe04cae6	-0.12968025
171	0xbe1c5fef	-0.15270971
172	0xbe236961	-0.15958168
173	0xbd1b53a8	-0.037921578
174	0x3d0b2133	0.033967208
175	0x3c308fb5	0.01077645
176	0xbde45383	-0.11148741
177	0xbcbc9808	-0.023021713
178	0x3a9403f4	0.0011292682
179	0xbd918b61	-0.071066625
180	0x3c8a7f15	0.0169063
181	0x3d098e3e	0.03358292
182	0xbdf26213	-0.118351124
183	0xbd5c4152	-0.05377323
184	0xbdf12725	-0.11775044
185	0x3caffd99	0.02148323
186	0x3d915c70	0.07097709
187	0x3d83bb73	0.064322375
188	0xbd219a31	-0.03945369
189	0x3cc96361	0.02458352
190	0xbdb76689	-0.08955104
191	0x3dfdd60a	0.1239434
192	0x3c64308f	0.013927593
193	0x3d956dd5	0.072963394
194	0x3d6cd01f	0.057815667
195	0xbdab10a3	-0.083527826
196	0xbce2dd22	-0.027693335
197	0xbe17331c	-0.1476559
198	0x3d40c7e2	0.047065623
199	0x3df7820d	0.12085352
200	0x3cecde48	0.028914586
201	0x3c403b1e	0.011732845
202	0xbd933d38	-0.07189411
203	0xbd3cd26e	-0.04609912
204	0xbdb27908	-0.08714491
205	0xbca0c2bf	-0.019624112
206	0x3d909afc	0.07060811
207	0x3dc6e209	0.097110815
208	0x3dc56711	0.09638799
209	0xbd0659a1	-0.03280032
210	0xbbd3bf42	-0.0064620087
211	0x3c988cbb	0.018621793
212	0xbd0bbbae	-0.034114532
213	0x3dced25e	0.10098718
214	0x3aa3dda0	0.0012501962
215	0xbd390d6e	-0.045178823
216	0x3d06a877	0.032875504
217	0x3c8af51b	0.016962579
218	0xbac22a8c	-0.0014813705
219	0x3d2dd53d	0.042439688
220	0x3d758c4e	0.059948258
221	0xbd635c79	-0.05550811
222	0x3b9d7529	0.0048052263
223	0x3cab88a2	0.020939175
224	0xbd8371ae	-0.06418167
225	0xbd9006b7	-0.07032531
226	0xbd291942	-0.041283853
227	0x3b6e0f81	0.003632516
228	0x3b8ee80d	0.0043611587
229	0xb9b0620e	-0.00033642392
230	0xbdd75ea3	-0.105160974
231	0xbdfb6e66	-0.12276916
232	0x3d967e33	0.07348289
233	0x3dbadb33	0.0912384
234	0xbdb9b260	-0.090672255
235	0xbd0119fd	-0.031518925
236	0xbe44e1bf	-0.1922674
237	0x3cec0d7a	0.02881502
238	0xbe361294	-0.17780524
239	0xbd9a5ee0	-0.07537627
240	0xbdacc6f0	-0.08436382
241	0xbd6df9f1	-0.05809969
242	0xbe12a84f	-0.14322017
243	0x3d31d629	0.04341713
244	0xbcf8ac67	-0.030355645
245	0x3d99fab9	0.07518525
246	0x3cc03bcf	0.023466019
247	0xbb5ef00f	-0.0034017598
248	0xbd4ef19b	-0.05052338
249	0xbd63cd86	-0.055615924
250	0x3cb6436d	0.022248948
251	0x3cd4a973	0.025959706
252	0xbdcb4510	-0.09925282
253	0xbd8442e5	-0.064580716
254	0xbc4b6bca	-0.012415836
255	0x3e224640	0.15847111

gcn1.fc.bias f4 [32]
0	0xbb841b3b	-0.0040315664
1	0x3c54f337	0.01299744
2	0x3d487bea	0.0489463
3	0x3c16e74c	0.009210419
4	0x3d634ea2	0.055494912
5	0x38ddd5ca	0.000105779225
6	0x3c2460d5	0.010032852
7	0x3cad5986	0.021160852
8	0x3b32f9f0	0.002730962
9	0x3cb86f23	0.022513932
10	0x3d5447ac	0.051826164
11	0x3d72b038	0.059250087
12	0x3b1e25da	0.0024131448
13	0x3d633081	0.05546618
14	0x3c9bb8a8	0.01900895
15	0x3c1b2e23	0.009471449
16	0xbb45fb9b	-0.0030209783
17	0xbbf3bec0	-0.0074385107
18	0x3c2937e8	0.0103282705
19	0x3d63100c	0.055435225
20	0x3c1c483e	0.009538708
21	0xbb9edc39	-0.00484803
22	0xbc2c5101	-0.01051736
23	0x3c01664f	0.007897927
24	0x3d51f7ef	0.05126184
25	0x3d4b0912	0.049569197
26	0xb7997bdc	-1.8296698e-05
27	0xbc1ffab7	-0.009764365
28	0x3caf20d5	0.02137796
29	0x3c058cbe	0.008151231
30	0xb9a6d862	-0.00031823205
31	0xbcc0531d	-0.023477132

disc.f_k.weight f4 [1, 32, 32]
0	0x3d97bb70	0.07408798
1	0x3e0407c3	0.12893586
2	0x3e10d9a5	0.14145525
3	0x3df53394	0.11972728
4	0x3d7863f0	0.060642183
5	0x3e3af0bf	0.182559
6	0x3dd10f7f	0.10208034
7	0x3e2a2233	0.16614608
8	0x3db67e8b	0.08910855
9	0x3d3fc8b3	0.04682226
10	0x3e2b484e	0.16726801
11	0x3e042c71	0.12907578
12	0x3dd34cdb	0.103173934
13	0x3d5b6c4f	0.053570088
14	0x3e3dc4aa	0.18532053
15	0x3e0ff256	0.14057288
16	0x3e2f6aac	0.17130536
17	0x3e0c4afc	0.1370048
18	0x3e275aeb	0.16343276
19	0x3e35d439	0.17756738
20	0x3e0c0b1f	0.13676117
21	0x3d3fe53d	0.046849478
22	0x3dfc36c9	0.12315137
23	0x3e4206ff	0.18947981
24	0x3d65a786	0.056067966
25	0x3e1ff9b0	0.15622592
26	0x3e045bf5	0.12925704
27	0x3e14018e	0.14453718
28	0x3e00158c	0.1250822
29	0x3ddc56f0	0.107587695
30	0x3e1eda76	0.15513024
31	0x3e4973f1	0.19673134
32	0x3d628bf1	0.05530924
33	0x3e088e3f	0.13335513
34	0x3e21e2f0	0.15809226
35	0x3defcc0c	0.11708841
36	0x3d4d88bf	0.05017924
37	0x3dcafd0a	0.099115446
38	0x3d45ff7a	0.048339345
39	0x3e3939bd	0.18088432
40	0x3d3d23a9	0.046176586
41	0x3d733b4d	0.059382726
42	0x3e22a05c	0.15881485
43	0x3e03ca5d	0.12870164
44	0x3e21fd69	0.15819325
45	0x3d9259a6	0.07146005
46	0x3e257049	0.16156115
47	0x3df89453	0.121376656
48	0x3e1df459	0.15425242
49	0x3e29f3f7	0.16596971
50	0x3d5ab1bd	0.05339216
51	0x3e04f38d	0.12983532
52	0x3d698f20	0.05702126
53	0x3e27c346	0.16383085
54	0x3dd5e63d	0.10444305
55	0x3e395ed4	0.1810258
56	0x3d5bab0d	0.053629924
57	0x3e409192	0.1880553
58	0x3de741cf	0.11291849
59	0x3e0c3a22	0.13694051
60	0x3e065ed4	0.13122112
61	0x3e2e22ff	0.17005537
62	0x3e0e6b09	0.13908018
63	0x3dcfcef2	0.101468936
64	0xbc492393	-0.012276548
65	0xbdbafbc1	-0.091300495
66	0xbe019c81	-0.12657358
67	0x3c4667b6	0.012109688
68	0xbe019739	-0.12655343
69	0xbe016314	-0.12635452
70	0x3baca364	0.005268501
71	0xbdcf0a20	-0.10109353
72	0xbd4797c5	-0.048728723
73	0xbcfd0fd2	-0.030891333
74	0xbd9179b5	-0.07103292
75	0xbd9adb96	-0.07561414
76	0xbd4e9189	-0.050431762
77	0xbe0c1f43	-0.136838
78	0xba8d0b47	-0.0010760807
79	0xbdf92666	-0.12165527
80	0xbd429a51	-0.04751045
81	0xbd435f59	-0.047698352
82	0xbd5c9a82	-0.053858288
83	0xbcb905ab	-0.02258571
84	0xbe0490b9	-0.12945832
85	0xbe0a940e	-0.13533041
86	0xbdbc1fb2	-0.09185733
87	0xbdfa6286	-0.12225823
88	0x3b2f2451	0.0026724527
89	0xbe0345f8	-0.1281966
90	0xbc03d01e	-0.0080452245
91	0xbe02ffe9	-0.12792934
92	0xbda8d961	-0.08244587
93	0xbd96800f	-0.07348644
94	0xbddee95d	-0.10884354
95	0xbdffaad3	-0.12483754
96	0x3e027e6b	0.12743537
97	0x3def889f	0.1169598
98	0x3e01fc4c	0.126939
99	0x3de72940	0.11287165
100	0x3debd623	0.11515453
101	0x3d89403d	0.067017056
102	0x3e419688	0.1890508
103	0x3db519f7	0.08842843
104	0x3e3dd5f3	0.18538646
105	0x3daf00b2	0.085450545
106	0x3d86db19	0.06584758
107	0x3e1e77ef	0.15475439
108	0x3db22962	0.086992994
109	0x3d647db5	0.055783946
110	0x3d4480d2	0.047974415
111	0x3dd92e18	0.10604495
112	0x3dc470c3	0.0959182
113	0x3e3f66c7	0.1869155
114	0x3e45029f	0.19239281
115	0x3df0d31b	0.11759015
116	0x3e2cacee	0.16862842
117	0x3e2f2617	0.17104374
118	0x3e29804f	0.16552852
119	0x3db8a202	0.090152755
120	0x3e033250	0.12812161
121	0x3e335f7d	0.17516895
122	0x3de77c57	0.11303013
123	0x3e0cf37a	0.13764754
124	0x3e079c0f	0.13243125
125	0x3e04c5c1	0.12966062
126	0x3e0ee9a3	0.13956313
127	0x3d99ffde	0.07519506
128	0xbde132a1	-0.10995985
129	0xbd1eaa1a	-0.03873644
130	0xb774aef3	-1.4584267e-05
131	0xbd86d9fe	-0.065845475
132	0xbd87107d	-0.06594942
133	0x3b103416	0.0022003702
134	0xbdec2a18	-0.11531466
135	0xbcade259	-0.021226095
136	0xbdfac68c	-0.12244901
137	0xbd7092b0	-0.058733642
138	0x3c477b5e	0.012175409
139	0xbd3dd449	-0.04634503
140	0xbabe6576	-0.0014526087
141	0xbdc597dd	-0.09648106
142	0xbdffe049	-0.12493951
143	0xbde96e61	-0.11398006
144	0xbd372dbe	-0.044721358
145	0xbdcbb8e3	-0.09947374
146	0xbd93f0db	-0.07223674
147	0xbb7bbe2e	-0.0038412916
148	0x3bdc7bfd	0.0067286477
149	0xbda8ae34	-0.082363516
150	0xbdb61992	-0.08891596
151	0xbce2bad5	-0.02767698
152	0xbdfddd9a	-0.12395783
153	0xbd600734	-0.05469437
154	0xbdb5abc2	-0.08870651
155	0xbded0783	-0.11573698
156	0xbd83b6e8	-0.06431371
157	0xbcee4346	-0.029084813
158	0xbd9006e1	-0.07032562
159	0xbde22b7d	-0.11043451
160	0x3defb749	0.11704881
161	0x3dc5edd2	0.09664501
162	0x3e470915	0.19437058
163	0x3e1f9651	0.15584685
164	0x3e3a289e	0.18179557
165	0x3e070788	0.13186467
166	0x3e1b63cb	0.15174787
167	0x3e234bab	0.15946834
168	0x3e39557f	0.1809902
169	0x3df1c08a	0.11804302
170	0x3dbc956c	0.092081875
171	0x3de0e880	0.10981846
172	0x3ddec82a	0.10878022
173	0x3dd1d5f4	0.102458864
174	0x3e2a3746	0.16622648
175	0x3e1782ec	0.14796036
176	0x3d9dbf20	0.0770247
177	0x3e1d04df	0.1533389
178	0x3e04a00d	0.1295168
179	0x3e1c95d4	0.1529153
180	0x3dbcae16	0.09212892
181	0x3df000c2	0.117188945
182	0x3dd5bbeb	0.10436233
183	0x3da61453	0.08109345
184	0x3da0ed2c	0.07857737
185	0x3ddf2f9c	0.10897753
186	0x3d7bdf02	0.061491974
187	0x3df4abf6	0.119468614
188	0x3d97fc7b	0.07421204
189	0x3e3b051d	0.1826367
190	0x3deb1dbe	0.11480282
191	0x3e07ee13	0.13274412
192	0x3e4cbbf7	0.19993578
193	0x3e05f8d3	0.130832
194	0x3e087502	0.13325885
195	0x3e3adffb	0.18249504
196	0x3e13226f	0.14368604
197	0x3dcad46c	0.099037975
198	0x3d861275	0.06546489
199	0x3e2e0d25	0.16997202
200	0x3db058ba	0.08610673
201	0x3e4b4afe	0.19852826
202	0x3d9f47ad	0.07777343
203	0x3e347d62	0.17625955
204	0x3e44f8f3	0.19235592
205	0x3e46c28b	0.1941015
206	0x3dcefd49	0.10106904
207	0x3e4fa50b	0.20277803
208	0x3e2058dd	0.15658899
209	0x3d86e5bf	0.06586789
210	0x3de93460	0.11386943
211	0x3e0056b4	0.12533075
212	0x3e45d795	0.1932052
213	0x3e3d7066	0.18499908
214	0x3df06d75	0.11739627
215	0x3e04f214	0.1298297
216	0x3e32dac5	0.17466266
217	0x3e1047ce	0.14089891
218	0x3d751b2d	0.05984037
219	0x3e0efd65	0.1396385
220	0x3dba6a74	0.091023356
221	0x3e180de4	0.14849049
222	0x3e23bb1c	0.15989345
223	0x3d8038bf	0.062608235
224	0xbe60ea4c	-0.21964377
225	0xbddc559b	-0.107585154
226	0xbdcf9ecf	-0.10137712
227	0xbe3b80b9	-0.18310823
228	0xbe25bd5c	-0.16185516
229	0xbe18ab56	-0.1490911
230	0xbe2caabf	-0.1686201
231	0xbda2807a	-0.07934661
232	0xbdfae504	-0.122507125
233	0xbe13d538	-0.14436805
234	0xbe1133b1	-0.14179875
235	0xbe30da4d	-0.17270775
236	0xbdc7d917	-0.097582035
237	0xbe4ec7f1	-0.20193459
238	0xbe3eaae4	-0.18619877
239	0xbe2aef6c	-0.16692895
240	0xbe04a409	-0.129532
241	0xbe163f19	-0.14672507
242	0xbdfa79f7	-0.12230294
243	0xbe2f00ec	-0.17090195
244	0xbe36236f	-0.17786954
245	0xbe44ab1d	-0.192059
246	0xbe08f466	-0.1337448
247	0xbe37825d	-0.17920823
248	0xbe66719c	-0.22504276
249	0xbdf488ba	-0.11940141
250	0xbe1b1771	-0.15145661
251	0xbdfebbb1	-0.12438143
252	0xbda02b8d	-0.07820807
253	0xbe058407	-0.13038646
254	0xbe209d44	-0.15684992
255	0xbe60b4e8	-0.2194401
